ChatBot/params/l1-weight.npy (npy, 1856 bytes, 1 tensors)

array f4 [8, 54]
0	0xbdb9b724	-0.090681344
1	0xbe039290	-0.12848878
2	0x3ed4d73c	0.4157046
3	0xbd902652	-0.07038559
4	0x3dfe558f	0.12418663
5	0x3ecf48cc	0.40485227
6	0x3e5d3027	0.216004
7	0x3edc3cf7	0.43015262
8	0x3f2920a3	0.66065425
9	0x3efc0591	0.49222997
10	0xbd8e543a	-0.06949659
11	0x3ec3414c	0.38135755
12	0x3ee8c7e5	0.45465007
13	0x3f13ecea	0.5778338
14	0xbe5904ca	-0.21193233
15	0x3e986496	0.2976424
16	0xbdad034d	-0.08447895
17	0x3f5d7e14	0.86520505
18	0xbeadfe26	-0.33982962
19	0xbea39fb0	-0.3195777
20	0xbe187db8	-0.14891708
21	0xbe859f20	-0.26097965
22	0xbed0a1c5	-0.4074842
23	0xbe868ffe	-0.26281732
24	0x3ed4f6d2	0.4159456
25	0xbe02edf2	-0.12786081
26	0xbe95896c	-0.29206407
27	0xbe27276b	-0.1632363
28	0xbdfce6b2	-0.12348689
29	0x3bbb919a	0.005724144
30	0x3f1c4305	0.61039764
31	0x3ead1afc	0.3380965
32	0xbd23cbde	-0.039989345
33	0x3ee1133e	0.43959993
34	0x3de96a54	0.113972336
35	0x3e9e750a	0.3094867
36	0xbd257c03	-0.04040147
37	0x3f196448	0.5991864
38	0x3e5cb071	0.21551682
39	0x3eaadfa1	0.3337374
40	0x3f219eb1	0.6313277
41	0xbf13dced	-0.5775898
42	0x3ee500ff	0.44727322
43	0xbe7b96a4	-0.24569184
44	0x3f04fa5f	0.51944536
45	0xbd929316	-0.07156961
46	0xbf0246f5	-0.5088952
47	0xbe32c285	-0.17457016
48	0xbe3ca445	-0.18422039
49	0xbeb7f7bb	-0.3593119
50	0x3eb0cef1	0.34532884
51	0xbe320330	-0.17384028
52	0x3ed57bd5	0.4169604
53	0x3e349830	0.1763618
54	0xbc044c56	-0.0080748405
55	0xbeb3bee2	-0.3510657
56	0xbe51a221	-0.20472004
57	0x3efd512b	0.4947599
58	0x3dccb557	0.09995525
59	0x3ec30347	0.38088438
60	0xbe664f23	-0.22491126
61	0xbe5b2fb5	-0.21404918
62	0xbeb456e2	-0.35222536
63	0xbe702209	-0.23450483
64	0x3f022793	0.50841635
65	0x3f1c8ce0	0.6115246
66	0x3e7d1d54	0.24718219
67	0x3f076859	0.52893597
68	0xbe137648	-0.1440059
69	0x3f0db1fc	0.5534971
70	0x3efa9658	0.48942828
71	0x3ed697b1	0.41912606
72	0x3d517f76	0.051146947
73	0x3f2c0520	0.6719532
74	0x3d1dfe9f	0.038572904
75	0x3f30c636	0.69052446
76	0x3f3372cd	0.7009705
77	0x3f31f447	0.6951336
78	0x3e711b6a	0.23545614
79	0x3eaac56d	0.3335375
80	0x3d04b7cd	0.03240185
81	0xbdfba742	-0.12287761
82	0xbce65554	-0.02811686
83	0xbe4bd012	-0.19903591
84	0x3e6d443d	0.23170562
85	0x3f289344	0.6584971
86	0xbda3fc44	-0.080071
87	0xbd88887b	-0.066666566
88	0xbe920c09	-0.28524807
89	0x3edecdfa	0.43516523
90	0xbd92fc59	-0.07177038
91	0xbe2e081c	-0.16995281
92	0xbdfd7d55	-0.12377421
93	0xbdda88aa	-0.10670598
94	0x3e86b323	0.26308545
95	0xbdd219f0	-0.102588534
96	0x3ea3629f	0.3191118
97	0xbdf5d13c	-0.12002799
98	0x3f0a7f5a	0.54100573
99	0xbe1ec035	-0.15503009
100	0xbef4654f	-0.47733542
101	0xbd09d106	-0.033646606
102	0x3ec467de	0.38360494
103	0xbce456cc	-0.02787342
104	0x3efad38b	0.4898952
105	0xbbbf8983	-0.00584525
106	0xbe6b691f	-0.2298932
107	0xbe8e7810	-0.27825975
108	0xbd05fc3e	-0.03271126
109	0xbf0e0a10	-0.55484104
110	0xbd4d2906	-0.05008795
111	0x3e845c41	0.25851634
112	0x3e21c372	0.15797213
113	0x3ebd1a69	0.36934212
114	0x3d01a43e	0.031650774
115	0xbe8336f4	-0.25627863
116	0xbee20ad5	-0.4414889
117	0xbec08ae5	-0.37605968
118	0x3e64bd3a	0.22337809
119	0x3f12b5df	0.57308763
120	0x3efb6fea	0.4910882
121	0x3f37e5d5	0.7183507
122	0xbea78ad5	-0.32723108
123	0x3ec280bd	0.37988845
124	0x3e8f1559	0.27945974
125	0x3f1b3049	0.6062055
126	0x3f09b999	0.53798825
127	0x3f37bed4	0.71775556
128	0xbe2f731f	-0.17133759
129	0x3eea519f	0.45765397
130	0x3f54bc79	0.83100086
131	0x3f3298bc	0.69764304
132	0x3ec85a94	0.39131606
133	0x3eaadbe1	0.3337088
134	0x3ee9b08c	0.45642507
135	0xbecbe3f0	-0.3982234
136	0x3e8ee60c	0.27909887
137	0xbee7ff9c	-0.45312202
138	0x3ea1ca43	0.31599626
139	0x3f26fd70	0.65230465
140	0xbcfd0bfe	-0.030889507
141	0xbe728236	-0.23682484
142	0xbe0c05e0	-0.13674116
143	0x3f05d636	0.52279985
144	0x3e946c86	0.28989047
145	0xbe98c941	-0.29841045
146	0xbe4a8571	-0.19777466
147	0xbd9ef294	-0.07761112
148	0x3ed9d256	0.42543286
149	0x3f204908	0.62611437
150	0x3eb301ea	0.34962398
151	0xbe28de8a	-0.16491142
152	0x3ed18afe	0.40926355
153	0xbe09fef4	-0.13476163
154	0xbf0ac218	-0.54202414
155	0xbe05512f	-0.1301925
156	0x3eb1d323	0.34731397
157	0x3f2d6b74	0.67742085
158	0x3ef678f0	0.48139143
159	0x3f01582a	0.5052515
160	0x3bb89f81	0.0056342487
161	0x3ec37dc8	0.381819
162	0x3f26187e	0.6488112
163	0x3ef67f07	0.4814379
164	0xbec0f752	-0.3768869
165	0x3ef9348c	0.48672903
166	0x3e6a5d8b	0.22887246
167	0xbe8a0567	-0.26957247
168	0xbe34d347	-0.17658721
169	0xbe3178c4	-0.17331225
170	0xbf0b9b54	-0.54533887
171	0xbe8b04df	-0.27152154
172	0x3f15124f	0.5823106
173	0xbe9b7279	-0.30360773
174	0xbec80200	-0.39064026
175	0xbe763afd	-0.2404594
176	0x3ea979b2	0.3310066
177	0xbc7b8484	-0.015351418
178	0x3ed62c1f	0.41830537
179	0xbdaaf710	-0.08347905
180	0xbe67b663	-0.22628169
181	0x3f3f2cc2	0.7467767
182	0x3ef50a8d	0.47859612
183	0x3f24b6b0	0.6434126
184	0x3f241896	0.64100015
185	0x3edf1d6e	0.4357714
186	0xbe680025	-0.22656305
187	0x3ecde822	0.40216166
188	0xbeb16f71	-0.34655336
189	0x3e8ae3f7	0.27127048
190	0xbed7ff4e	-0.4218697
191	0x3d9d9c83	0.07695868
192	0x3e2f8091	0.17138888
193	0xbe9cbaab	-0.30611166
194	0x3eaca834	0.3372208
195	0xbea63cd7	-0.32468292
196	0x3e200374	0.15626317
197	0xbcb21173	-0.021736836
198	0xbeb497f9	-0.35272196
199	0xbf19b3de	-0.6004008
200	0xbde7098c	-0.11281118
201	0xbe76cbee	-0.2410123
202	0x389499fe	7.085873e-05
203	0xbd74873e	-0.05969929
204	0xbdfe68c4	-0.12422326
205	0x3ec368c0	0.38165855
206	0xbe8391f0	-0.2569728
207	0x3d6571ee	0.056016855
208	0x3f7c681b	0.9859635
209	0x3eff00ca	0.4980529
210	0x3eb8ac28	0.36068845
211	0xbea6caa8	-0.3257649
212	0x3d83f34c	0.064428896
213	0xbe038255	-0.12842686
214	0xbdce89ac	-0.100848526
215	0x3e709ee3	0.2349811
216	0x3efb58b0	0.490911
217	0x3f3c3889	0.73523766
218	0x3edb88fe	0.42877954
219	0xbe735e11	-0.23766352
220	0xbe985ef1	-0.29759935
221	0x3e03960d	0.12850209
222	0x3f01325f	0.50467485
223	0x3ec6cdb9	0.3882883
224	0x3f075299	0.5286041
225	0x3e9688c3	0.29401216
226	0xbe83e013	-0.25756893
227	0x3e14b9e0	0.1452403
228	0x3f20aaa8	0.627604
229	0x3e5fd837	0.21859823
230	0x3f2c2752	0.672475
231	0xbe1b1a29	-0.15146698
232	0xbe3190ec	-0.1734044
233	0x3e7216ff	0.23641585
234	0x3e10434d	0.14088173
235	0xbed7d85c	-0.42157257
236	0x3f0ce6f6	0.5503992
237	0xbeec01a5	-0.46095005
238	0xbeddde66	-0.4333374
239	0xbec2008b	-0.3789104
240	0x3d5b92ad	0.053606678
241	0xbdfb36d5	-0.12266318
242	0x3ea761e9	0.32691887
243	0x3f44a668	0.76816416
244	0x3ec75dad	0.38938656
245	0x3f2fbee8	0.68650675
246	0x3b04936d	0.0020229474
247	0x3e4a8f47	0.19781218
248	0x3e296b0e	0.16544744
249	0x3e9a5f96	0.3015105
250	0x3f4cef77	0.80052894
251	0xbcb167d4	-0.021655954
252	0x3ea6bfb9	0.32568148
253	0x3ee2fa63	0.44331655
254	0x3e959615	0.29216066
255	0x3eb010cb	0.34387812
